module loc(#loc0) {
^bb0:
    tt.func public @add_kernel() attributes {noinline = false} loc(#loc0) {
    ^bb0:
        %c16_i32 = arith.constant 16 : i32 loc(#loc1)
        %0 = tt.get_program_id x : i32 loc(#loc2)
        %1 = arith.muli %0, %c16_i32 : i32 -> i32 loc(#loc3)
        %2 = tt.make_range {end = 16 : i32, start = 0 : i32} : tensor<16xi32> loc(#loc4)
        %3 = tt.splat %1 : i32 -> tensor<16xi32> loc(#loc5)
        %4 = arith.addi %3, %2 : tensor<16xi32> -> tensor<16xi32> loc(#loc5)
        %5 = tt.splat %arg0 : !tt.ptr<f32> -> tensor<16x!tt.ptr<f32>> loc(#loc6)
        %6 = tt.addptr %5, %4 : tensor<16x!tt.ptr<f32>> -> tensor<16x!tt.ptr<f32>> loc(#loc6)
        %7 = tt.load %6 : tensor<16x!tt.ptr<f32>> -> tensor<16x!tt.ptr<f32>> loc(#loc7)
        %8 = tt.splat %arg1 : !tt.ptr<f32> -> tensor<16x!tt.ptr<f32>> loc(#loc8)
        %9 = tt.addptr %8, %4 : tensor<16x!tt.ptr<f32>> -> tensor<16x!tt.ptr<f32>> loc(#loc8)
        %10 = tt.load %9 : tensor<16x!tt.ptr<f32>> -> tensor<16x!tt.ptr<f32>> loc(#loc9)
        %11 = arith.addf %7, %10 : tensor<16x!tt.ptr<f32>> -> tensor<16xf32> loc(#loc10)
        %12 = tt.splat %arg2 : !tt.ptr<f32> -> tensor<16x!tt.ptr<f32>> loc(#loc11)
        %13 = tt.addptr %12, %4 : tensor<16x!tt.ptr<f32>> -> tensor<16x!tt.ptr<f32>> loc(#loc11)
        tt.store %13, %11 : tensor<16x!tt.ptr<f32>> loc(#loc12)
        tt.return
    }
}
#loc10 = loc("test_add.py":43:17)
#loc11 = loc("test_add.py":44:26)
#loc12 = loc("test_add.py":44:35)
#loc13 = loc("test_add.py":44:4)
#loc1 = loc(unknown)
#loc2 = loc("test_add.py":37:24)
#loc3 = loc("test_add.py":38:24)
#loc4 = loc("test_add.py":39:41)
#loc5 = loc("test_add.py":39:28)
#loc6 = loc("test_add.py":41:24)
#loc7 = loc("test_add.py":41:16)
#loc8 = loc("test_add.py":42:24)
#loc9 = loc("test_add.py":42:16)

