module {
^bb0:
    tt.func(%arg0: !tt.ptr<f32>, %arg1: !tt.ptr<f32>, %arg2: !tt.ptr<f32>, %arg3: i32) {
    ^bb0:
        %c16_i32 = arith.constant 16 : i32
        %0 = tt.get_program_id {axis = "x"} -> i32
        %1 = arith.muli(%0: i32, %c16_i32: i32) -> i32
        %2 = tt.make_range {end = 16, start = 0} -> tensor<16xi32>
        %3 = tt.splat(%1: i32) -> tensor<16xi32>
        %4 = arith.addi(%3: tensor<16xi32>, %2: tensor<16xi32>) -> tensor<16xi32>
        %5 = tt.splat(%arg0: !tt.ptr<f32>) -> tensor<16x!tt.ptr<f32>>
        %6 = tt.addptr(%5: tensor<16x!tt.ptr<f32>>, %4: tensor<16xi32>) -> tensor<16x!tt.ptr<f32>>
        %7 = tt.load(%6: tensor<16x!tt.ptr<f32>>) -> tensor<16x!tt.ptr<f32>>
        %8 = tt.splat(%arg1: !tt.ptr<f32>) -> tensor<16x!tt.ptr<f32>>
        %9 = tt.addptr(%8: tensor<16x!tt.ptr<f32>>, %4: tensor<16xi32>) -> tensor<16x!tt.ptr<f32>>
        %10 = tt.load(%9: tensor<16x!tt.ptr<f32>>) -> tensor<16x!tt.ptr<f32>>
        %11 = arith.addf(%7: tensor<16x!tt.ptr<f32>>, %10: tensor<16x!tt.ptr<f32>>) -> tensor<16xf32>
        %12 = tt.splat(%arg2: !tt.ptr<f32>) -> tensor<16x!tt.ptr<f32>>
        %13 = tt.addptr(%12: tensor<16x!tt.ptr<f32>>, %4: tensor<16xi32>) -> tensor<16x!tt.ptr<f32>>
        tt.store(%13: tensor<16x!tt.ptr<f32>>, %11: tensor<16xf32>)
        tt.return
    }
}

