Starting main...
Arena created...
Parsing args...
Arg 1: tests/triton_mm.ttir
Arg 2: --no-error-banner
Arg 3: --line=-1
Arg 4: --column=-1
Done parsing args. use_construction=0
MLIR:
module() {
^bb0:
    tt.func(%arg0: !tt.ptr<f32>, %arg1: !tt.ptr<f32>, %arg2: !tt.ptr<f32>, %arg3: i32) {
    ^bb0:
        %cst = arith.constant() -> tensor<32x128xi32>
        %cst_0 = arith.constant() -> tensor<64x32xi32>
        %c32_i32 = arith.constant() {value = 32} -> i32
        %c512_i32 = arith.constant() {value = 512} -> i32
        %c16_i32 = arith.constant() {value = 16} -> i32
        %c63_i32 = arith.constant() {value = 63} -> i32
        %cst_1 = arith.constant() -> tensor<64x1xi32>
        %cst_2 = arith.constant() -> tensor<1x128xi32>
        %cst_3 = arith.constant() -> tensor<64x128xf32>
        %cst_4 = arith.constant() -> tensor<1x128xi32>
        %cst_5 = arith.constant() -> tensor<64x1xi32>
        %cst_6 = arith.constant() -> tensor<128xi32>
        %c8_i32 = arith.constant() {value = 8} -> i32
        %c128_i32 = arith.constant() {value = 128} -> i32
        %c64_i32 = arith.constant() {value = 64} -> i32
        %c0_i32 = arith.constant() {value = 0} -> i32
        %c256_i32 = arith.constant() {value = 256} -> i32
        %0 = arith.muli(%arg3: i32, %c256_i32: i32) -> i32
        %1 = arith.cmpi() -> ?
        cf.cond_br()
    ^bb1:
        tt.return()
    ^bb2:
        %2 = tt.get_program_id() {axis = "x"} -> i32
        %3 = arith.addi(%arg3: i32, %c63_i32: i32) -> i32
        %4 = "arith.divsi"() -> ?
        %5 = "arith.divsi"() -> ?
        %6 = arith.muli(%5: i32, %c8_i32: i32) -> i32
        %7 = arith.subi(%4: i32, %6: i32) -> i32
        %8 = "arith.minsi"() -> ?
        %9 = "arith.remsi"() -> ?
        %10 = arith.addi(%6: i32, %9: i32) -> i32
        %11 = "arith.remsi"() -> ?
        %12 = "arith.divsi"() -> ?
        %13 = arith.muli(%10: i32, %c64_i32: i32) -> i32
        %14 = tt.make_range() {end = 16 : i32, start = 0 : i32} -> tensor<64xi32>
        %15 = tt.splat(%13: i32) -> tensor<64xi32>
        %16 = arith.addi(%15: tensor<64xi32>, %14: tensor<64xi32>) -> tensor<64xi32>
        %17 = arith.muli(%12: i32, %c128_i32: i32) -> i32
        %18 = tt.make_range() {end = 16 : i32, start = 0 : i32} -> tensor<128xi32>
        %19 = tt.splat(%17: i32) -> tensor<128xi32>
        %20 = arith.addi(%19: tensor<128xi32>, %18: tensor<128xi32>) -> tensor<128xi32>
        %21 = tt.splat(%arg3: i32) -> tensor<64xi32>
        %22 = "arith.remsi"() -> ?
        %23 = "arith.remsi"() -> ?
        %24 = tt.make_range() {end = 16 : i32, start = 0 : i32} -> tensor<32xi32>
        %25 = "tt.expand_dims"(%22: i32) -> tensor<64xi32>
        %26 = arith.muli(%25: tensor<64xi32>, %cst_5: tensor<64x1xi32>) -> tensor<64x1xi32>
        %27 = "tt.expand_dims"(%24: tensor<32xi32>) -> tensor<32xi32>
        %28 = "tt.broadcast"(%26: tensor<64x1xi32>) -> tensor<64x1xi32>
        %29 = "tt.broadcast"(%27: tensor<32xi32>) -> tensor<1x32xi32>
        %30 = arith.addi(%28: tensor<64x1xi32>, %29: tensor<1x32xi32>) -> tensor<64x32xi32>
        %31 = tt.splat(%arg0: !tt.ptr<f32>) -> tensor<64x32x!tt.ptr<f32>>
        %32 = tt.addptr(%31: tensor<64x32x!tt.ptr<f32>>, %30: tensor<64x32xi32>) -> tensor<64x32x!tt.ptr<f32>>
        %33 = "tt.expand_dims"(%24: tensor<32xi32>) -> tensor<32xi32>
        %34 = "tt.expand_dims"(%23: i32) -> tensor<128xi32>
        %35 = arith.muli(%34: tensor<128xi32>, %cst_4: tensor<1x128xi32>) -> tensor<1x128xi32>
        %36 = "tt.broadcast"(%33: tensor<32xi32>) -> tensor<32x1xi32>
        %37 = "tt.broadcast"(%35: tensor<1x128xi32>) -> tensor<1x128xi32>
        %38 = arith.addi(%36: tensor<32x1xi32>, %37: tensor<1x128xi32>) -> tensor<32x128xi32>
        %39 = tt.splat(%arg1: !tt.ptr<f32>) -> tensor<32x128x!tt.ptr<f32>>
        %40 = tt.addptr(%39: tensor<32x128x!tt.ptr<f32>>, %38: tensor<32x128xi32>) -> tensor<32x128x!tt.ptr<f32>>
        %41 = scf.for(%c0_i32: i32, %c512_i32: i32, %c32_i32: i32, %cst_3: tensor<64x128xf32>, %32: tensor<64x32x!tt.ptr<f32>>, %40: tensor<32x128x!tt.ptr<f32>>) -> ? {
        ^bb0(%arg0: index, %arg1: i16, %arg2: i16, %arg3: i16):
            %56 = tt.load(%arg2: i16) -> tensor<64x32x!tt.ptr<f32>>
            %57 = tt.load(%arg3: i16) -> tensor<32x128x!tt.ptr<f32>>
            %58 = "tt.dot"(%56: tensor<64x32x!tt.ptr<f32>>, %57: tensor<32x128x!tt.ptr<f32>>, %arg1: i16) -> tensor<64x32xf32>
            %59 = tt.addptr(%arg2: i16, %cst_0: tensor<64x32xi32>) -> tensor<64x32x!tt.ptr<f32>>
            %60 = tt.addptr(%arg3: i16, %cst: tensor<32x128xi32>) -> tensor<32x128x!tt.ptr<f32>>
            scf.yield(%58: tensor<64x32xf32>, %59: tensor<64x32x!tt.ptr<f32>>, %60: tensor<32x128x!tt.ptr<f32>>)
        }
        %42 = "tt.expand_dims"(%16: tensor<64xi32>) -> tensor<64xi32>
        %43 = "tt.expand_dims"(%20: tensor<128xi32>) -> tensor<128xi32>
        %44 = tt.splat(%arg3: i32) -> tensor<64x1xi32>
        %45 = arith.cmpi() -> ?
        %46 = arith.cmpi() -> ?
        %47 = "tt.broadcast"(%45: i32) -> tensor<64x1xi1>
        %48 = "tt.broadcast"(%46: i32) -> tensor<1x128xi1>
        %49 = "arith.andi"() -> ?
        %50 = arith.muli(%42: tensor<64xi32>, %cst_1: tensor<64x1xi32>) -> tensor<64x1xi32>
        %51 = "tt.broadcast"(%43: tensor<128xi32>) -> tensor<1x128xi32>
        %52 = "tt.broadcast"(%50: tensor<64x1xi32>) -> tensor<64x1xi32>
        %53 = arith.addi(%51: tensor<1x128xi32>, %52: tensor<64x1xi32>) -> tensor<64x128xi32>
        %54 = tt.splat(%arg2: !tt.ptr<f32>) -> tensor<64x128x!tt.ptr<f32>>
        %55 = tt.addptr(%54: tensor<64x128x!tt.ptr<f32>>, %53: tensor<64x128xi32>) -> tensor<64x128x!tt.ptr<f32>>
        tt.store(%55: tensor<64x128x!tt.ptr<f32>>, %41: i32, %49: i32)
        tt.return()
    }
}

