Starting main...
Arena created...
Parsing args...
Arg 1: tests/sumrow.ttir
Arg 2: --no-error-banner
Arg 3: --line=-1
Arg 4: --column=-1
Done parsing args. use_construction=0
MLIR:
module() {
^bb0:
    tt.func(%arg0: !tt.ptr<f32>, %arg1: !tt.ptr<f32>, %arg2: i32, %arg3: i32) {
    ^bb0:
        %0 = arith.constant() {value = 4} -> i32
        %1 = arith.constant() {value = 2048} -> i32
        %2 = tt.get_program_id() {axis = "x"} -> i32
        %3 = arith.constant() {value = 2} -> i32
        %4 = arith.muli(%2: i32, %3: i32) -> i32
        %5 = tt.make_range() {end = 16 : i32, start = 0 : i32} -> tensor<2xi32>
        %6 = "tt.expand_dims"(%5: tensor<2xi32>) -> ?
        %7 = tt.splat(%4: i32) -> tensor<16xi32>
        %8 = arith.addi(%7: tensor<16xi32>, %6: i32) -> tensor<2x1xi32>
        %9 = arith.constant() -> ?
        %10 = arith.cmpi() -> ?
        %11 = tt.make_range() {end = 16 : i32, start = 0 : i32} -> tensor<256xi32>
        %12 = "tt.expand_dims"(%11: tensor<256xi32>) -> ?
        %13 = arith.constant() -> ?
        %14 = arith.constant() -> ?
        %15 = arith.constant() {value = 0} -> i32
        %16 = arith.constant() {value = 256} -> i32
        %17 = "arith.bitcast"() -> ?
        %18 = "arith.bitcast"() -> ?
        %19 = "arith.bitcast"() -> ?
        %20 = "llvm.mlir"() -> ?
        %21 = scf.for(%17: i32, %18: i32, %19: i32, %14: i32) -> ? {
        ^bb0(%arg0: index, %arg1: i16):
            %22 = tt.splat(%arg0: index) -> tensor<16xi32>
            %23 = arith.addi(%22: tensor<16xi32>, %12: i32) -> tensor<1x256xi32>
            %24 = arith.constant() -> ?
            %25 = arith.cmpi() -> ?
            %26 = arith.constant() {value = 2048} -> i32
            %27 = arith.constant() -> ?
            %28 = arith.muli(%8: tensor<2x1xi32>, %27: i32) -> tensor<2x1xi32>
            %29 = "tt.broadcast"(%23: tensor<1x256xi32>) -> ?
            %30 = "tt.broadcast"(%28: tensor<2x1xi32>) -> ?
            %31 = arith.addi(%29: i32, %30: i32) -> tensor<2x256xi32>
            %32 = tt.splat(%arg0: !tt.ptr<f32>) -> tensor<16x!tt.ptr<f32>>
            %33 = tt.addptr(%32: tensor<16x!tt.ptr<f32>>, %31: tensor<2x256xi32>) -> tensor<2x256x!tt.ptr<f32>
            %34 = "tt.broadcast"(%25: i32) -> ?
            %35 = "tt.broadcast"(%10: i32) -> ?
            %36 = "arith.andi"() -> ?
            %37 = arith.constant() {value = 0} -> i32
            %38 = arith.constant() -> ?
            %39 = "arith.sitofp"() -> ?
            %40 = tt.load(%33: tensor<2x256x!tt.ptr<f32>, %36: i32, %39: i32) -> tensor<2x256xf32>
            %41 = arith.addf(%arg1: i16, %40: tensor<2x256xf32>) -> tensor<2x256xf32>
            %42 = "tt.broadcast"(%10: i32) -> ?
            %43 = "tt.broadcast"(%25: i32) -> ?
            %44 = "arith.andi"() -> ?
            %45 = "arith.select"() -> ?
            scf.yield(%45: i32)
        }
        %46 = "tt.call"() -> ?
        %47 = "tt.expand_dims"(%46: i32) -> ?
        %48 = tt.splat(%arg1: !tt.ptr<f32>) -> tensor<16x!tt.ptr<f32>>
        %49 = tt.addptr(%48: tensor<16x!tt.ptr<f32>>, %8: tensor<2x1xi32>) -> tensor<2x1x!tt.ptr<f32>
        tt.store(%49: tensor<2x1x!tt.ptr<f32>, %47: i32, %10: i32)
        tt.return()
    }
    tt.func(%arg0: tensor) {
    ^bb0:
        %50 = "tt.reduce"() -> ? {
        ^bb0(%arg1: f32, %arg2: f32):
            %51 = "tt.call"() -> ?
            "tt.reduce"()
        }
        tt.return(%50: i32)
    }
    tt.func(%arg0: f32, %arg1: f32) {
    ^bb0:
        %52 = arith.addf(%arg0: f32, %arg1: f32) -> f32
        tt.return(%52: f32)
    }
}

