module() {
^bb0:
    tt.func(%arg0: !tt.ptr<f32>, %arg1: !tt.ptr<f32>, %arg2: !tt.ptr<f32>, %arg3: i32) {
    ^bb0:
        %c1024_i32 = arith.constant() {value = 1024} -> i32
        %0 = tt.get_program_id() {axis = "x"} -> i32
        %1 = arith.muli(%0: i32, %c1024_i32: i32) -> i32
        %2 = tt.make_range() {end = 16 : i32, start = 0 : i32} -> tensor<1024xi32>
        %3 = tt.splat(%1: i32) -> tensor<1024xi32>
        %4 = arith.addi(%3: tensor<1024xi32>, %2: tensor<1024xi32>) -> tensor<1024xi32>
        %5 = tt.splat(%arg3: i32) -> tensor<1024xi32>
        %6 = arith.cmpi(%4: tensor<1024xi32>, %5: tensor<1024xi32>) -> tensor<1024xi32>
        %7 = tt.splat(%arg0: !tt.ptr<f32>) -> tensor<1024x!tt.ptr<f32>>
        %8 = tt.addptr(%7: tensor<1024x!tt.ptr<f32>>, %4: tensor<1024xi32>) -> tensor<1024x!tt.ptr<f32>>
        %9 = tt.load(%8: tensor<1024x!tt.ptr<f32>>, %6: tensor<1024xi32>) -> tensor<1024x!tt.ptr<f32>>
        %10 = tt.splat(%arg1: !tt.ptr<f32>) -> tensor<1024x!tt.ptr<f32>>
        %11 = tt.addptr(%10: tensor<1024x!tt.ptr<f32>>, %4: tensor<1024xi32>) -> tensor<1024x!tt.ptr<f32>>
        %12 = tt.load(%11: tensor<1024x!tt.ptr<f32>>, %6: tensor<1024xi32>) -> tensor<1024x!tt.ptr<f32>>
        %13 = arith.addf(%9: tensor<1024x!tt.ptr<f32>>, %12: tensor<1024x!tt.ptr<f32>>) -> tensor<1024xf32>
        %14 = tt.splat(%arg2: !tt.ptr<f32>) -> tensor<1024x!tt.ptr<f32>>
        %15 = tt.addptr(%14: tensor<1024x!tt.ptr<f32>>, %4: tensor<1024xi32>) -> tensor<1024x!tt.ptr<f32>>
        tt.store(%15: tensor<1024x!tt.ptr<f32>>, %13: tensor<1024xf32>, %6: tensor<1024xi32>)
        tt.return()
    }
}

