Starting main...
Arena created...
Parsing args...
Arg 1: tests/c.mlir
Arg 2: --no-error-banner
Arg 3: --line=-1
Arg 4: --column=-1
Done parsing args. use_construction=0
MLIR:
module() {
^bb0:
    tt.func(%arg0: !tt.ptr<f16,1>, %arg1: !tt.ptr<f16,1>, %arg2: i32) {
    ^bb0:
        %0 = "arith.extsi"(%arg2: i32) -> i32
        %1 = tt.make_range() {end = 16 : i32, start = 0 : i32} -> tensor<128xi32>
        %2 = "arith.extsi"(%1: tensor<128xi32>) -> tensor<128xi32>
        %3 = "tt.expand_dims"(%2: tensor<128xi32>) -> tensor<128x1xi64>
        %4 = tt.splat(%0: i32) -> tensor<128x1xi64>
        %5 = arith.muli(%3: tensor<128x1xi64>, %4: tensor<128x1xi64>) -> tensor<128x1xi64>
        %6 = tt.splat(%arg0: !tt.ptr<f16,1>) -> tensor<128x1x!tt.ptr<f16,1>>
        %7 = tt.addptr(%6: tensor<128x1x!tt.ptr<f16,1>>, %5: tensor<128x1xi64>) -> tensor<128x1x!tt.ptr<f16,1>>
        %8 = "tt.broadcast"(%7: tensor<128x1x!tt.ptr<f16,1>>) -> tensor<128x64x!tt.ptr<f16,1>>
        %9 = tt.make_range() {end = 16 : i32, start = 0 : i32} -> tensor<64xi32>
        %10 = "arith.extsi"(%9: tensor<64xi32>) -> tensor<64xi32>
        %11 = "tt.expand_dims"(%10: tensor<64xi32>) -> tensor<1x64xi64>
        %12 = "tt.broadcast"(%11: tensor<1x64xi64>) -> tensor<128x64xi64>
        %13 = tt.addptr(%8: tensor<128x64x!tt.ptr<f16,1>>, %12: tensor<128x64xi64>) -> tensor<128x64x!tt.ptr<f16,1>>
        %14 = tt.load(%13: tensor<128x64x!tt.ptr<f16,1>>) -> tensor<128x64xf16>
        %15 = "arith.extf"(%14: tensor<128x64xf16>) -> tensor<128x64xf16>
        %16 = "tt.reduce"() -> ? {
        ^bb0(%arg3: f32, %arg4: f32):
            %20 = "arith.maxf"(%arg3: f32, %arg4: f32) -> f32
            "tt.reduce"()
        }
        %17 = tt.splat(%arg1: !tt.ptr<f16,1>) -> tensor<128x!tt.ptr<f16,1>>
        %18 = tt.addptr(%17: tensor<128x!tt.ptr<f16,1>>, %1: tensor<128xi32>) -> tensor<128x!tt.ptr<f16,1>>
        %19 = "arith.truncf"(%16: i32) -> tensor<128xf32>
        tt.store(%18: tensor<128x!tt.ptr<f16,1>>, %19: tensor<128xf32>)
        tt.return()
    }
}

