Starting main...
Arena created...
Parsing args...
Arg 1: tests/triton_mm.ttir
Arg 2: --no-error-banner
Arg 3: --line=-1
Arg 4: --column=-1
Done parsing args. use_construction=0
MLIR:
module() {
^bb0:
    tt.func(%arg0: !tt.ptr<f32>, %arg1: !tt.ptr<f32>, %arg2: !tt.ptr<f32>, %arg3: i32) {
    ^bb0:
        %0 = arith.constant() -> ?
        %1 = arith.constant() -> ?
        %2 = arith.constant() {value = 32} -> i32
        %3 = arith.constant() {value = 512} -> i32
        %4 = arith.constant() {value = 16} -> i32
        %5 = arith.constant() {value = 63} -> i32
        %6 = arith.constant() -> ?
        %7 = arith.constant() -> ?
        %8 = arith.constant() -> ?
        %9 = arith.constant() -> ?
        %10 = arith.constant() -> ?
        %11 = arith.constant() -> ?
        %12 = arith.constant() {value = 8} -> i32
        %13 = arith.constant() {value = 128} -> i32
        %14 = arith.constant() {value = 64} -> i32
        %15 = arith.constant() {value = 0} -> i32
        %16 = arith.constant() {value = 256} -> i32
        %17 = arith.muli(%arg3: i32, %16: i32) -> i32
        %18 = arith.cmpi() -> ?
        cf.cond_br()
    ^bb1:
        tt.return()
    ^bb2:
        %19 = tt.get_program_id() {axis = "x"} -> i32
        %20 = arith.addi(%arg3: i32, %5: i32) -> i32
        %21 = "arith.divsi"() -> ?
        %22 = "arith.divsi"() -> ?
        %23 = arith.muli(%22: i32, %12: i32) -> i32
        %24 = arith.subi(%21: i32, %23: i32) -> i32
        %25 = "arith.minsi"() -> ?
        %26 = "arith.remsi"() -> ?
        %27 = arith.addi(%23: i32, %26: i32) -> i32
        %28 = "arith.remsi"() -> ?
        %29 = "arith.divsi"() -> ?
        %30 = arith.muli(%27: i32, %14: i32) -> i32
        %31 = tt.make_range() {end = 16 : i32, start = 0 : i32} -> tensor<64xi32>
        %32 = tt.splat(%30: i32) -> tensor<16xi32>
        %33 = arith.addi(%32: tensor<16xi32>, %31: tensor<64xi32>) -> tensor<64xi32>
        %34 = arith.muli(%29: i32, %13: i32) -> i32
        %35 = tt.make_range() {end = 16 : i32, start = 0 : i32} -> tensor<128xi32>
        %36 = tt.splat(%34: i32) -> tensor<16xi32>
        %37 = arith.addi(%36: tensor<16xi32>, %35: tensor<128xi32>) -> tensor<128xi32>
        %38 = tt.splat(%arg3: i32) -> tensor<16xi32>
        %39 = "arith.remsi"() -> ?
        %40 = "arith.remsi"() -> ?
        %41 = tt.make_range() {end = 16 : i32, start = 0 : i32} -> tensor<32xi32>
        %42 = "tt.expand_dims"(%39: i32) -> tensor<64xi32>
        %43 = arith.muli(%42: tensor<64xi32>, %10: i32) -> tensor<64x1xi32>
        %44 = "tt.expand_dims"(%41: tensor<32xi32>) -> tensor<32xi32>
        %45 = "tt.broadcast"(%43: tensor<64x1xi32>) -> tensor<64x1xi32>
        %46 = "tt.broadcast"(%44: tensor<32xi32>) -> tensor<1x32xi32>
        %47 = arith.addi(%45: tensor<64x1xi32>, %46: tensor<1x32xi32>) -> tensor<64x32xi32>
        %48 = tt.splat(%arg0: !tt.ptr<f32>) -> tensor<16x!tt.ptr<f32>>
        %49 = tt.addptr(%48: tensor<16x!tt.ptr<f32>>, %47: tensor<64x32xi32>) -> tensor<64x32x!tt.ptr<f32>
        %50 = "tt.expand_dims"(%41: tensor<32xi32>) -> tensor<32xi32>
        %51 = "tt.expand_dims"(%40: i32) -> tensor<128xi32>
        %52 = arith.muli(%51: tensor<128xi32>, %9: i32) -> tensor<1x128xi32>
        %53 = "tt.broadcast"(%50: tensor<32xi32>) -> tensor<32x1xi32>
        %54 = "tt.broadcast"(%52: tensor<1x128xi32>) -> tensor<1x128xi32>
        %55 = arith.addi(%53: tensor<32x1xi32>, %54: tensor<1x128xi32>) -> tensor<32x128xi32>
        %56 = tt.splat(%arg1: !tt.ptr<f32>) -> tensor<16x!tt.ptr<f32>>
        %57 = tt.addptr(%56: tensor<16x!tt.ptr<f32>>, %55: tensor<32x128xi32>) -> tensor<32x128x!tt.ptr<f32>
        %58 = scf.for(%15: i32, %3: i32, %2: i32, %8: i32, %49: tensor<64x32x!tt.ptr<f32>, %57: tensor<32x128x!tt.ptr<f32>) -> ? {
        ^bb0(%arg0: index, %arg1: i16, %arg2: i16, %arg3: i16):
            %59 = tt.load(%arg2: i16) -> tensor<64x32x!tt.ptr<f32>
            %60 = tt.load(%arg3: i16) -> tensor<32x128x!tt.ptr<f32>
            %61 = "tt.dot"(%59: tensor<64x32x!tt.ptr<f32>, %60: tensor<32x128x!tt.ptr<f32>, %arg1: i16) -> tensor<64x32xf32>
            %62 = tt.addptr(%arg2: i16, %1: i32) -> tensor<64x32x!tt.ptr<f32>
            %63 = tt.addptr(%arg3: i16, %0: i32) -> tensor<32x128x!tt.ptr<f32>
            scf.yield(%61: tensor<64x32xf32>, %62: tensor<64x32x!tt.ptr<f32>, %63: tensor<32x128x!tt.ptr<f32>)
        }
        %64 = "tt.expand_dims"(%33: tensor<64xi32>) -> tensor<64xi32>
        %65 = "tt.expand_dims"(%37: tensor<128xi32>) -> tensor<128xi32>
        %66 = tt.splat(%arg3: i32) -> tensor<16xi32>
        %67 = arith.cmpi() -> ?
        %68 = arith.cmpi() -> ?
        %69 = "tt.broadcast"(%67: i32) -> tensor<64x1xi1>
        %70 = "tt.broadcast"(%68: i32) -> tensor<1x128xi1>
        %71 = "arith.andi"() -> ?
        %72 = arith.muli(%64: tensor<64xi32>, %6: i32) -> tensor<64x1xi32>
        %73 = "tt.broadcast"(%65: tensor<128xi32>) -> tensor<1x128xi32>
        %74 = "tt.broadcast"(%72: tensor<64x1xi32>) -> tensor<64x1xi32>
        %75 = arith.addi(%73: tensor<1x128xi32>, %74: tensor<64x1xi32>) -> tensor<64x128xi32>
        %76 = tt.splat(%arg2: !tt.ptr<f32>) -> tensor<16x!tt.ptr<f32>>
        %77 = tt.addptr(%76: tensor<16x!tt.ptr<f32>>, %75: tensor<64x128xi32>) -> tensor<64x128x!tt.ptr<f32>
        tt.store(%77: tensor<64x128x!tt.ptr<f32>, %58: i32)
        tt.return()
    }
}

