Starting main...
Arena created...
Parsing args...
Arg 1: tests/add1.ttir
Arg 2: --no-error-banner
Arg 3: --line=-1
Arg 4: --column=-1
Done parsing args. use_construction=0
MLIR:
module() {
^bb0:
    tt.func(%arg0: !tt.ptr<f32>, %arg1: !tt.ptr<f32>, %arg2: !tt.ptr<f32>, %arg3: i32) {
    ^bb0(%arg0: !tt.ptr<f32>, %arg1: !tt.ptr<f32>, %arg2: !tt.ptr<f32>, %arg3: i32):
        %0 = arith.constant() {value = 1024} -> i32
        %1 = tt.get_program_id() {axis = "x"} -> i32
        %2 = arith.muli(%1: i32, %0: i32) -> i32
        %3 = "tt.make_range"() {end = 16 : i32, start = 0 : i32} -> tensor<1024xi32>
        %4 = "tt.splat"(%2: i32) -> i32
        %5 = arith.addi(%4: i32, %3: tensor<1024xi32>) -> tensor<1024xi32>
        %6 = "tt.splat"(%arg3: i32) -> i32
        %7 = "arith.cmpi"() -> ?
        %8 = "tt.splat"(%arg0: !tt.ptr<f32>) -> tensor<16x!tt.ptr<f32>>
        %9 = "tt.addptr"(%8: tensor<16x!tt.ptr<f32>>, %5: tensor<1024xi32>) -> tensor<1024x!tt.ptr<f32>
        %10 = tt.load(%9: tensor<1024x!tt.ptr<f32>, %7: i32) -> tensor<1024x!tt.ptr<f32>
        %11 = "tt.splat"(%arg1: !tt.ptr<f32>) -> tensor<16x!tt.ptr<f32>>
        %12 = "tt.addptr"(%11: tensor<16x!tt.ptr<f32>>, %5: tensor<1024xi32>) -> tensor<1024x!tt.ptr<f32>
        %13 = tt.load(%12: tensor<1024x!tt.ptr<f32>, %7: i32) -> tensor<1024x!tt.ptr<f32>
        %14 = arith.addf(%10: tensor<1024x!tt.ptr<f32>, %13: tensor<1024x!tt.ptr<f32>) -> tensor<1024xf32>
        %15 = "tt.splat"(%arg2: !tt.ptr<f32>) -> tensor<16x!tt.ptr<f32>>
        %16 = "tt.addptr"(%15: tensor<16x!tt.ptr<f32>>, %5: tensor<1024xi32>) -> tensor<1024x!tt.ptr<f32>
        %0 = tt.store(%16: tensor<1024x!tt.ptr<f32>, %14: tensor<1024xf32>, %7: i32) -> tensor<1024x!tt.ptr<f32>
        "tt.return"()
    }
}

