Starting main...
Arena created...
Parsing args...
Arg 1: tests/sumrow.ttir
Arg 2: --no-error-banner
Arg 3: --line=-1
Arg 4: --column=-1
Done parsing args. use_construction=0
Warning (25:28): Undefined value: %arg4
      %18 = tt.splat %arg4 : (i32) -> tensor<1x256xi32>
                           ^
MLIR:
module() {
^bb0:
    tt.func(%arg0: !tt.ptr<f32>, %arg1: !tt.ptr<f32>, %arg2: i32, %arg3: i32) {
    ^bb0(%arg0: !tt.ptr<f32>, %arg1: !tt.ptr<f32>, %arg2: i32, %arg3: i32):
        %0 = arith.constant() {value = 4} -> i32
        %1 = arith.constant() {value = 2048} -> i32
        %2 = tt.get_program_id x() -> i32
        %3 = arith.constant() {value = 2} -> i32
        %4 = arith.muli(%2: i32, %3: i32) -> i32
        %5 = "tt.make_range"() {end = 16 : i32, start = 0 : i32} -> tensor<2xi32>
        %6 = "tt.expand_dims"() -> ?
        %7 = "tt.splat"(%4: i32) -> tensor<16xi32>
        %8 = arith.addi(%7: tensor<16xi32>, %6: i32) -> tensor<2x1xi32>
        %9 = arith.constant() -> ?
        %10 = "arith.cmpi"() -> ?
        %11 = "tt.make_range"() {end = 16 : i32, start = 0 : i32} -> tensor<256xi32>
        %12 = "tt.expand_dims"() -> ?
        %13 = arith.constant() -> ?
        %14 = arith.constant() -> ?
        %15 = arith.constant() {value = 0} -> i32
        %16 = arith.constant() {value = 256} -> i32
        %17 = "arith.bitcast"() -> ?
        %18 = "arith.bitcast"() -> ?
        %19 = "arith.bitcast"() -> ?
        %20 = "llvm.mlir"() -> ?
        %45 = "scf.for"() -> ? {
        ^bb0:
            %21 = "tt.splat"(%arg4: unknown) -> tensor<16xi32>
            %22 = arith.addi(%21: tensor<16xi32>, %12: i32) -> tensor<1x256xi32>
            %23 = arith.constant() -> ?
            %24 = "arith.cmpi"() -> ?
            %25 = arith.constant() {value = 2048} -> i32
            %26 = arith.constant() -> ?
            %27 = arith.muli(%8: tensor<2x1xi32>, %26: i32) -> tensor<2x1xi32>
            %28 = "tt.broadcast"() -> ?
            %29 = "tt.broadcast"() -> ?
            %30 = arith.addi(%28: i32, %29: i32) -> tensor<2x256xi32>
            %31 = "tt.splat"(%arg0: !tt.ptr<f32>) -> tensor<16x!tt.ptr<f32>>
            %32 = "tt.addptr"(%31: tensor<16x!tt.ptr<f32>>, %30: tensor<2x256xi32>) -> tensor<2x256x!tt.ptr<f32>
            %33 = "tt.broadcast"() -> ?
            %34 = "tt.broadcast"() -> ?
            %35 = "arith.andi"() -> ?
            %36 = arith.constant() {value = 0} -> i32
            %37 = arith.constant() -> ?
            %38 = "arith.sitofp"() -> ?
            %39 = "tt.load"(%32: tensor<2x256x!tt.ptr<f32>, %35: i32, %38: i32) -> ?
            %40 = "arith.addf"() -> tensor<16xf32>
            %41 = "tt.broadcast"() -> ?
            %42 = "tt.broadcast"() -> ?
            %43 = "arith.andi"() -> ?
            %44 = "arith.select"() -> ?
            "scf.yield"()
        }
        %46 = "tt.call"() -> ?
        %47 = "tt.expand_dims"() -> ?
        %48 = "tt.splat"(%arg1: !tt.ptr<f32>) -> tensor<16x!tt.ptr<f32>>
        %49 = "tt.addptr"(%48: tensor<16x!tt.ptr<f32>>, %8: tensor<2x1xi32>) -> tensor<2x1x!tt.ptr<f32>
        "tt.store"(%49: tensor<2x1x!tt.ptr<f32>, %47: i32, %10: i32)
        "tt.return"()
    }
    tt.func(%arg0: tensor) {
    ^bb0(%arg0: tensor):
        %51 = "tt.reduce"() -> ? {
        ^bb0(%arg1: f32, %arg2: f32):
            %50 = "tt.call"() -> ?
            "tt.reduce"()
        }
        "tt.return"()
    }
    tt.func(%arg0: f32, %arg1: f32) {
    ^bb0(%arg0: f32, %arg1: f32):
        %52 = "arith.addf"() -> tensor<16xf32>
        "tt.return"()
    }
}

