Starting main...
Arena created...
Parsing args...
Arg 1: tests/matmul1.ttir
Arg 2: --no-error-banner
Arg 3: --line=-1
Arg 4: --column=-1
Done parsing args. use_construction=0
MLIR:
module() {
^bb0:
    tt.func(%arg0: !tt.ptr<f32,1>, %arg1: !tt.ptr<f32,1>, %arg2: !tt.ptr<f32,1>, %arg3: i32, %arg4: i32, %arg5: i32, %arg6: i32, %arg7: i32, %arg8: i32) {
    ^bb0:
        %0 = arith.constant() {value = 15} -> i32
        %1 = arith.constant() {value = 63} -> i32
        %2 = arith.constant() {value = 31} -> i32
        %3 = arith.constant() {value = 1} -> i32
        %4 = arith.constant() {value = 0} -> i32
        %5 = arith.constant() -> ?
        %6 = arith.constant() -> ?
        %7 = arith.constant() -> ?
        %8 = arith.constant() -> ?
        %9 = arith.constant() {value = 16} -> i32
        %10 = arith.constant() {value = 64} -> i32
        %11 = arith.constant() {value = 32} -> i32
        %12 = arith.constant() {value = 8} -> i32
        %13 = tt.get_program_id() {axis = "x"} -> i32
        %14 = arith.addi(%arg3: i32, %2: i32) -> i32
        %15 = "arith.divsi"() -> ?
        %16 = arith.addi(%arg4: i32, %1: i32) -> i32
        %17 = "arith.divsi"() -> ?
        %18 = arith.muli(%17: i32, %12: i32) -> i32
        %19 = "arith.divsi"() -> ?
        %20 = arith.muli(%19: i32, %12: i32) -> i32
        %21 = arith.subi(%15: i32, %20: i32) -> i32
        %22 = "arith.minsi"() -> ?
        %23 = "arith.remsi"() -> ?
        %24 = arith.addi(%20: i32, %23: i32) -> i32
        %25 = "arith.remsi"() -> ?
        %26 = "arith.divsi"() -> ?
        %27 = arith.muli(%24: i32, %11: i32) -> i32
        %28 = tt.make_range() {end = 16 : i32, start = 0 : i32} -> tensor<32xi32>
        %29 = tt.splat(%27: i32) -> tensor<16xi32>
        %30 = arith.addi(%29: tensor<16xi32>, %28: tensor<32xi32>) -> tensor<32xi32>
        %31 = tt.splat(%arg3: i32) -> tensor<16xi32>
        %32 = "arith.remsi"() -> ?
        %33 = arith.muli(%26: i32, %10: i32) -> i32
        %34 = tt.make_range() {end = 16 : i32, start = 0 : i32} -> tensor<64xi32>
        %35 = tt.splat(%33: i32) -> tensor<16xi32>
        %36 = arith.addi(%35: tensor<16xi32>, %34: tensor<64xi32>) -> tensor<64xi32>
        %37 = tt.splat(%arg4: i32) -> tensor<16xi32>
        %38 = "arith.remsi"() -> ?
        %39 = tt.make_range() {end = 16 : i32, start = 0 : i32} -> tensor<16xi32>
        %40 = "tt.expand_dims"(%32: i32) -> ?
        %41 = tt.splat(%arg6: i32) -> tensor<16xi32>
        %42 = arith.muli(%40: i32, %41: tensor<16xi32>) -> tensor<32x1xi32>
        %43 = "tt.expand_dims"(%39: tensor<16xi32>) -> ?
        %44 = "tt.broadcast"(%42: tensor<32x1xi32>) -> ?
        %45 = "tt.broadcast"(%43: i32) -> ?
        %46 = arith.addi(%44: i32, %45: i32) -> tensor<32x16xi32>
        %47 = tt.splat(%arg0: !tt.ptr<f32,1>) -> tensor<16xi32>
        %48 = tt.addptr(%47: tensor<16xi32>, %46: tensor<32x16xi32>) -> tensor<32x16x!tt.ptr<f32,1>
        %49 = "tt.expand_dims"(%39: tensor<16xi32>) -> ?
        %50 = tt.splat(%arg7: i32) -> tensor<16xi32>
        %51 = arith.muli(%49: i32, %50: tensor<16xi32>) -> tensor<16x1xi32>
        %52 = "tt.expand_dims"(%38: i32) -> ?
        %53 = "tt.broadcast"(%51: tensor<16x1xi32>) -> ?
        %54 = "tt.broadcast"(%52: i32) -> ?
        %55 = arith.addi(%53: i32, %54: i32) -> tensor<16x64xi32>
        %56 = tt.splat(%arg1: !tt.ptr<f32,1>) -> tensor<16xi32>
        %57 = tt.addptr(%56: tensor<16xi32>, %55: tensor<16x64xi32>) -> tensor<16x64x!tt.ptr<f32,1>
        %58 = arith.addi(%arg5: i32, %0: i32) -> i32
        %59 = "arith.divsi"() -> ?
        %60 = arith.muli(%arg7: i32, %9: i32) -> i32
        %61 = tt.splat(%60: i32) -> tensor<16xi32>
        %62 = scf.for(%4: i32, %59: i32, %3: i32, %6: i32, %48: tensor<32x16x!tt.ptr<f32,1>, %57: tensor<16x64x!tt.ptr<f32,1>) -> ? {
        ^bb0(%arg0: index, %arg1: i16, %arg2: i16, %arg3: i16):
            %63 = arith.muli(%arg0: index, %9: i32) -> i32
            %64 = arith.subi(%arg5: i32, %63: i32) -> i32
            %65 = tt.splat(%64: i32) -> tensor<16xi32>
            %66 = arith.cmpi() -> ?
            %67 = "tt.broadcast"(%66: i32) -> ?
            %68 = tt.load(%arg2: i16, %67: i32, %8: i32) -> tensor<32x16xf32>
            %69 = tt.splat(%64: i32) -> tensor<16xi32>
            %70 = arith.cmpi() -> ?
            %71 = "tt.broadcast"(%70: i32) -> ?
            %72 = tt.load(%arg3: i16, %71: i32, %7: i32) -> tensor<16x64xf32>
            %73 = "tt.dot"(%68: tensor<32x16xf32>, %72: tensor<16x64xf32>, %arg1: i16) -> tensor<32x16xf32>
            %74 = tt.addptr(%arg2: i16, %5: i32) -> tensor<32x16x!tt.ptr<f32,1>
            %75 = tt.addptr(%arg3: i16, %61: tensor<16xi32>) -> tensor<16x64x!tt.ptr<f32,1>
            scf.yield(%73: tensor<32x16xf32>, %74: tensor<32x16x!tt.ptr<f32,1>, %75: tensor<16x64x!tt.ptr<f32,1>)
        }
        %76 = "tt.expand_dims"(%30: tensor<32xi32>) -> ?
        %77 = tt.splat(%arg8: i32) -> tensor<16xi32>
        %78 = arith.muli(%77: tensor<16xi32>, %76: i32) -> tensor<32x1xi32>
        %79 = tt.splat(%arg2: !tt.ptr<f32,1>) -> tensor<16xi32>
        %80 = tt.addptr(%79: tensor<16xi32>, %78: tensor<32x1xi32>) -> tensor<32x1x!tt.ptr<f32,1>
        %81 = "tt.expand_dims"(%36: tensor<64xi32>) -> ?
        %82 = "tt.broadcast"(%80: tensor<32x1x!tt.ptr<f32,1>) -> ?
        %83 = "tt.broadcast"(%81: i32) -> ?
        %84 = tt.addptr(%82: i32, %83: i32) -> tensor<32x64x!tt.ptr<f32,1>
        %85 = tt.splat(%arg3: i32) -> tensor<16xi32>
        %86 = arith.cmpi() -> ?
        %87 = tt.splat(%arg4: i32) -> tensor<16xi32>
        %88 = arith.cmpi() -> ?
        %89 = "tt.broadcast"(%86: i32) -> ?
        %90 = "tt.broadcast"(%88: i32) -> ?
        %91 = "arith.andi"() -> ?
        tt.store(%84: tensor<32x64x!tt.ptr<f32,1>, %62: i32)
        tt.return()
    }
}

