Starting main...
Arena created...
Parsing args...
Arg 1: tests/add_kernel.ttir
Arg 2: --no-error-banner
Arg 3: --line=-1
Arg 4: --column=-1
Done parsing args. use_construction=0
MLIR:
module() {
^bb0:
    tt.func(%arg0: !tt.ptr<f32>, %arg1: !tt.ptr<f32>, %arg2: !tt.ptr<f32>, %arg3: i32) {
    ^bb0(%arg0: !tt.ptr<f32>, %arg1: !tt.ptr<f32>, %arg2: !tt.ptr<f32>, %arg3: i32):
        %0 = arith.constant() {value = 16} -> i32
        %1 = tt.get_program_id() {axis = "x"} -> i32
        %2 = arith.muli(%1: i32, %0: i32) -> i32
        %3 = tt.make_range() {end = 16 : i32, start = 0 : i32} -> tensor<16xi32>
        %4 = tt.splat(%2: i32) -> i32
        %5 = arith.addi(%4: i32, %3: tensor<16xi32>) -> tensor<16xi32>
        %6 = tt.splat(%arg0: !tt.ptr<f32>) -> tensor<16x!tt.ptr<f32>>
        %7 = tt.addptr(%6: tensor<16x!tt.ptr<f32>>, %5: tensor<16xi32>) -> tensor<16x!tt.ptr<f32>
        %8 = tt.load(%7: tensor<16x!tt.ptr<f32>) -> tensor<16x!tt.ptr<f32>
        %9 = tt.splat(%arg1: !tt.ptr<f32>) -> tensor<16x!tt.ptr<f32>>
        %10 = tt.addptr(%9: tensor<16x!tt.ptr<f32>>, %5: tensor<16xi32>) -> tensor<16x!tt.ptr<f32>
        %11 = tt.load(%10: tensor<16x!tt.ptr<f32>) -> tensor<16x!tt.ptr<f32>
        %12 = arith.addf(%8: tensor<16x!tt.ptr<f32>, %11: tensor<16x!tt.ptr<f32>) -> tensor<16xf32>
        %13 = tt.splat(%arg2: !tt.ptr<f32>) -> tensor<16x!tt.ptr<f32>>
        %14 = tt.addptr(%13: tensor<16x!tt.ptr<f32>>, %5: tensor<16xi32>) -> tensor<16x!tt.ptr<f32>
        tt.store(%14: tensor<16x!tt.ptr<f32>, %12: tensor<16xf32>)
        tt.return()
    }
}

