Starting main...
Arena created...
Parsing args...
Arg 1: tests/matmul1.ttir
Arg 2: --no-error-banner
Arg 3: --line=-1
Arg 4: --column=-1
Done parsing args. use_construction=0
Warning (72:27): Undefined value: %arg11
      %71 = tt.load %arg11, %70, %cst_2 {cache = 1 : i32, evict = 1 : i32, isVolatile = false} : tensor<32x16xf32> loc(#loc43)
                          ^
Warning (76:27): Undefined value: %arg12
      %75 = tt.load %arg12, %74, %cst_1 {cache = 1 : i32, evict = 1 : i32, isVolatile = false} : tensor<16x64xf32> loc(#loc45)
                          ^
Warning (78:29): Undefined value: %arg11
      %77 = tt.addptr %arg11, %cst : tensor<32x16x!tt.ptr<f32, 1>>, tensor<32x16xi32> loc(#loc47)
                            ^
Warning (79:29): Undefined value: %arg12
      %78 = tt.addptr %arg12, %48 : tensor<16x64x!tt.ptr<f32, 1>>, tensor<16x64xi32> loc(#loc38)
                            ^
MLIR:
module() {
^bb0:
    tt.func(%arg0: !tt.ptr<f32,1>, %arg1: !tt.ptr<f32,1>, %arg2: !tt.ptr<f32,1>, %arg3: i32, %arg4: i32, %arg5: i32, %arg6: i32, %arg7: i32, %arg8: i32) {
    ^bb0(%arg0: !tt.ptr<f32,1>, %arg1: !tt.ptr<f32,1>, %arg2: !tt.ptr<f32,1>, %arg3: i32, %arg4: i32, %arg5: i32, %arg6: i32, %arg7: i32, %arg8: i32):
        %0 = arith.constant() {value = 15} -> i32
        %1 = arith.constant() {value = 63} -> i32
        %2 = arith.constant() {value = 31} -> i32
        %3 = arith.constant() {value = 1} -> i32
        %4 = arith.constant() {value = 0} -> i32
        %5 = arith.constant() -> ?
        %6 = arith.constant() -> ?
        %7 = arith.constant() -> ?
        %8 = arith.constant() -> ?
        %9 = arith.constant() {value = 16} -> i32
        %10 = arith.constant() {value = 64} -> i32
        %11 = arith.constant() {value = 32} -> i32
        %12 = arith.constant() {value = 8} -> i32
        %13 = tt.get_program_id() {axis = "x"} -> i32
        %14 = arith.addi(%arg3: i32, %2: i32) -> i32
        %15 = "arith.divsi"() -> ?
        %16 = arith.addi(%arg4: i32, %1: i32) -> i32
        %17 = "arith.divsi"() -> ?
        %18 = arith.muli(%17: i32, %12: i32) -> i32
        %19 = "arith.divsi"() -> ?
        %20 = arith.muli(%19: i32, %12: i32) -> i32
        %21 = arith.subi(%15: i32, %20: i32) -> i32
        %22 = "arith.minsi"() -> ?
        %23 = "arith.remsi"() -> ?
        %24 = arith.addi(%20: i32, %23: i32) -> i32
        %25 = "arith.remsi"() -> ?
        %26 = "arith.divsi"() -> ?
        %27 = arith.muli(%24: i32, %11: i32) -> i32
        %28 = "tt.make_range"() {end = 16 : i32, start = 0 : i32} -> tensor<32xi32>
        %29 = "tt.splat"(%27: i32) -> tensor<16xi32>
        %30 = arith.addi(%29: tensor<16xi32>, %28: tensor<32xi32>) -> tensor<32xi32>
        %31 = "tt.splat"(%arg3: i32) -> tensor<16xi32>
        %32 = "arith.remsi"() -> ?
        %33 = arith.muli(%26: i32, %10: i32) -> i32
        %34 = "tt.make_range"() {end = 16 : i32, start = 0 : i32} -> tensor<64xi32>
        %35 = "tt.splat"(%33: i32) -> tensor<16xi32>
        %36 = arith.addi(%35: tensor<16xi32>, %34: tensor<64xi32>) -> tensor<64xi32>
        %37 = "tt.splat"(%arg4: i32) -> tensor<16xi32>
        %38 = "arith.remsi"() -> ?
        %39 = "tt.make_range"() {end = 16 : i32, start = 0 : i32} -> tensor<16xi32>
        %40 = "tt.expand_dims"() -> ?
        %41 = "tt.splat"(%arg6: i32) -> tensor<16xi32>
        %42 = arith.muli(%40: i32, %41: tensor<16xi32>) -> tensor<32x1xi32>
        %43 = "tt.expand_dims"() -> ?
        %44 = "tt.broadcast"() -> ?
        %45 = "tt.broadcast"() -> ?
        %46 = arith.addi(%44: i32, %45: i32) -> tensor<32x16xi32>
        %47 = "tt.splat"(%arg0: !tt.ptr<f32,1>) -> tensor<16xi32>
        %48 = "tt.addptr"(%47: tensor<16xi32>, %46: tensor<32x16xi32>) -> tensor<32x16x!tt.ptr<f32,1>
        %49 = "tt.expand_dims"() -> ?
        %50 = "tt.splat"(%arg7: i32) -> tensor<16xi32>
        %51 = arith.muli(%49: i32, %50: tensor<16xi32>) -> tensor<16x1xi32>
        %52 = "tt.expand_dims"() -> ?
        %53 = "tt.broadcast"() -> ?
        %54 = "tt.broadcast"() -> ?
        %55 = arith.addi(%53: i32, %54: i32) -> tensor<16x64xi32>
        %56 = "tt.splat"(%arg1: !tt.ptr<f32,1>) -> tensor<16xi32>
        %57 = "tt.addptr"(%56: tensor<16xi32>, %55: tensor<16x64xi32>) -> tensor<16x64x!tt.ptr<f32,1>
        %58 = arith.addi(%arg5: i32, %0: i32) -> i32
        %59 = "arith.divsi"() -> ?
        %60 = arith.muli(%arg7: i32, %9: i32) -> i32
        %61 = "tt.splat"(%60: i32) -> tensor<16xi32>
        %73 = "scf.for"() -> ? {
        ^bb0:
            %62 = arith.muli(%999: i32, %9: i32) -> i32
            %63 = arith.subi(%arg5: i32, %62: i32) -> i32
            %64 = "tt.splat"(%63: i32) -> tensor<16xi32>
            %65 = "arith.cmpi"() -> ?
            %66 = "tt.broadcast"() -> ?
            "tt.load"(%arg11: unknown, %66: i32, %8: i32)
            %67 = "tt.splat"(%63: i32) -> tensor<16xi32>
            %68 = "arith.cmpi"() -> ?
            %69 = "tt.broadcast"() -> ?
            "tt.load"(%arg12: unknown, %69: i32, %7: i32)
            %70 = "tt.dot"() -> ?
            %71 = "tt.addptr"(%arg11: unknown, %5: i32) -> tensor<32x16x!tt.ptr<f32,1>
            %72 = "tt.addptr"(%arg12: unknown, %61: tensor<16xi32>) -> tensor<16x64x!tt.ptr<f32,1>
            "scf.yield"()
        }
        %74 = "tt.expand_dims"() -> ?
        %75 = "tt.splat"(%arg8: i32) -> tensor<16xi32>
        %76 = arith.muli(%75: tensor<16xi32>, %74: i32) -> tensor<32x1xi32>
        %77 = "tt.splat"(%arg2: !tt.ptr<f32,1>) -> tensor<16xi32>
        %78 = "tt.addptr"(%77: tensor<16xi32>, %76: tensor<32x1xi32>) -> tensor<32x1x!tt.ptr<f32,1>
        %79 = "tt.expand_dims"() -> ?
        %80 = "tt.broadcast"() -> ?
        %81 = "tt.broadcast"() -> ?
        %82 = "tt.addptr"(%80: i32, %81: i32) -> tensor<32x64x!tt.ptr<f32,1>
        %83 = "tt.splat"(%arg3: i32) -> tensor<16xi32>
        %84 = "arith.cmpi"() -> ?
        %85 = "tt.splat"(%arg4: i32) -> tensor<16xi32>
        %86 = "arith.cmpi"() -> ?
        %87 = "tt.broadcast"() -> ?
        %88 = "tt.broadcast"() -> ?
        %89 = "arith.andi"() -> ?
        "tt.store"(%82: tensor<32x64x!tt.ptr<f32,1>, %73: i32)
        "tt.return"()
    }
}

