module() {
^bb0:
    tt.func(%arg0: !tt.ptr<bf16>, %arg1: i32, %arg2: !tt.ptr<f32>, %arg3: !tt.ptr<f32>, %arg4: !tt.ptr<i64>) {visibility = "public", sym_name = "_chunked_cross_entropy_forward_0d1d2d3d4d"} {
    ^bb0:
        %cst = arith.constant() {value_text = "dense<0xFF80>"} -> tensor<65536xbf16>
        %cst_0 = arith.constant() {value = ...} -> f32
        %cst_1 = arith.constant() {value_text = "-1.000000e+00"} -> f32
        %c-100_i32 = arith.constant() {value_text = "-100"} -> i32
        %c0_i32 = arith.constant() {value = 0} -> i32
        %cst_2 = arith.constant() {value_text = "dense<128256>"} -> tensor<65536xi32>
        %c65536_i32 = arith.constant() {value = 65536} -> i32
        %c2_i32 = arith.constant() {value = 2} -> i32
        %0 = tt.get_program_id() {axis = "x"} -> i32
        %1 = tt.get_program_id() {axis = "y"} -> i32
        %2 = "arith.extsi"(%arg1: i32) -> i64
        %3 = "arith.extsi"(%0: i32) -> i64
        %4 = arith.muli(%3: i64, %2: i64) -> i64
        %5 = tt.addptr(%arg0: !tt.ptr<bf16>, %4: i64) -> !tt.ptr<bf16>
        %6 = tt.addptr(%arg2: !tt.ptr<f32>, %0: i32) -> !tt.ptr<f32>
        %7 = arith.muli(%0: i32, %c2_i32: i32) -> i32
        %8 = arith.addi(%7: i32, %1: i32) -> i32
        %9 = tt.addptr(%arg3: !tt.ptr<f32>, %8: i32) -> !tt.ptr<f32>
        %10 = tt.addptr(%arg4: !tt.ptr<i64>, %0: i32) -> !tt.ptr<i64>
        %11 = arith.muli(%1: i32, %c65536_i32: i32) -> i32
        %12 = tt.make_range() {end = 65536 : i32, start = 0 : i32} -> tensor<65536xi32>
        %13 = tt.splat(%11: i32) -> tensor<65536xi32>
        %14 = arith.addi(%13: tensor<65536xi32>, %12: tensor<65536xi32>) -> tensor<65536xi32>
        %15 = arith.cmpi(%14: tensor<65536xi32>, %cst_2: tensor<65536xi32>) {predicate = "slt"} -> i1
        %16 = tt.load(%10: !tt.ptr<i64>) {cache = "1:i32", evict = "1:i32", isVolatile = "false"} -> i64
        %17 = "arith.trunci"(%16: i64) -> i32
        %18 = tt.splat(%5: !tt.ptr<bf16>) -> tensor<65536x!tt.ptr<bf16>>
        %19 = tt.addptr(%18: tensor<65536x!tt.ptr<bf16>>, %14: tensor<65536xi32>) -> tensor<65536x!tt.ptr<bf16>>
        %20 = tt.load(%19: tensor<65536x!tt.ptr<bf16>>, %15: i1, %cst: tensor<65536xbf16>) {cache = "1:i32", evict = "1:i32", isVolatile = "false"} -> tensor<65536xbf16>
        %21 = "arith.extf"(%20: tensor<65536xbf16>) -> tensor<65536xf32>
        %22 = tt.reduce(%21: tensor<65536xf32>) {axis = 0} -> f32 {
        ^bb0(%arg5: f32, %arg6: f32):
            %30 = "tt.pure_extern_elementwise"(%arg5: f32, %arg6: f32) {libname = ""libdevice"", libpath = ""/opt/conda/lib/python3.11/site-packages/triton/language/../third_party/cuda/lib/libdevice.10.bc"", symbol = ""__nv_fmaxf""} -> f32
            tt.reduce.return(%30: f32)
        }
        %23 = tt.splat(%22: f32) -> tensor<65536xf32>
        %24 = arith.subf(%21: tensor<65536xf32>, %23: tensor<65536xf32>) -> tensor<65536xf32>
        %25 = "math.exp"(%24: tensor<65536xf32>) -> tensor<65536xf32>
        %26 = tt.reduce(%25: tensor<65536xf32>) {axis = 0} -> f32 {
        ^bb0(%arg5: f32, %arg6: f32):
            %30 = arith.addf(%arg5: f32, %arg6: f32) -> f32
            tt.reduce.return(%30: f32)
        }
        %27 = "math.log"(%26: f32) -> f32
        %28 = arith.addf(%22: f32, %27: f32) -> f32
        %29 = arith.cmpi(%1: i32, %c0_i32: i32) {predicate = "eq"} -> i1
        scf.if(%29: i1) {
        ^bb0:
            %30 = arith.cmpi(%17: i32, %c-100_i32: i32) {predicate = "ne"} -> i1
            %31 = scf.if(%30: i1) -> f32 {
            ^bb0:
                %32 = tt.addptr(%5: !tt.ptr<bf16>, %17: i32) -> !tt.ptr<bf16>
                %33 = tt.load(%32: !tt.ptr<bf16>) {cache = "1:i32", evict = "1:i32", isVolatile = "false"} -> bf16
                %34 = "arith.extf"(%33: bf16) -> f32
                %35 = arith.mulf(%34: f32, %cst_1: f32) -> f32
                scf.yield(%35: f32)
            }{
            ^bb0:
                scf.yield(%cst_0: f32)
            }
            tt.store(%6: !tt.ptr<f32>, %31: f32) {cache = 1, evict = 1}
        }
        tt.store(%9: !tt.ptr<f32>, %28: f32) {cache = 1, evict = 1}
        tt.return()
    }
}

